…
I0401 16:03:14.763149 23942 net.cpp:294] The NetState phase (0) differed from the phase (1) specified by a rule in layer data
I0401 16:03:14.763279 23942 net.cpp:51] Initializing net from parameters: 
name: "simpleconv3"
state {
  phase: TRAIN
  level: 0
  stage: ""
}
layer {
  name: "data"
  type: "ImageData"
  top: "data"
  top: "label"
  include {
    phase: TRAIN
  }
  transform_param {
    mirror: true
    crop_size: 48
    mean_value: 104.008
    mean_value: 116.669
    mean_value: 122.675
  }
  image_data_param {
    source: "train_shuffle.txt"
    batch_size: 96
    shuffle: true
  }
}
layer {
  name: "conv1"
  type: "Convolution"
  bottom: "data"
  top: "conv1"
  param {
    lr_mult: 1
    decay_mult: 1
  }
  param {
    lr_mult: 2
    decay_mult: 0
  }
  convolution_param {
    num_output: 12
    pad: 1
    kernel_size: 3
    stride: 2
    weight_filler {
      type: "xavier"
      std: 0.01
    }
    bias_filler {
      type: "constant"
      value: 0.2
    }
  }
}
layer {
  name: "conv1/bn"
  type: "BatchNorm"
  bottom: "conv1"
  top: "conv1"
  param {
    lr_mult: 0
    decay_mult: 0
  }
  param {
    lr_mult: 0
    decay_mult: 0
  }
  param {
    lr_mult: 0
    decay_mult: 0
  }
}
layer {
  name: "conv1/scale"
  type: "Scale"
  bottom: "conv1"
  top: "conv1"
  param {
    lr_mult: 1
    decay_mult: 0
  }
  param {
    lr_mult: 1
    decay_mult: 0
  }
  scale_param {
    filler {
      value: 1
    }
    bias_term: true
    bias_filler {
      value: 0
    }
  }
}
layer {
  name: "relu1"
  type: "ReLU"
  bottom: "conv1"
  top: "conv1"
}
layer {
  name: "conv2"
  type: "Convolution"
  bottom: "conv1"
  top: "conv2"
  param {
    lr_mult: 1
    decay_mult: 1
  }
  param {
    lr_mult: 2
    decay_mult: 0
  }
  convolution_param {
    num_output: 24
    pad: 1
    kernel_size: 3
    stride: 2
    weight_filler {
      type: "xavier"
      std: 0.1
    }
    bias_filler {
      type: "constant"
      value: 0.2
    }
  }
}
layer {
  name: "conv2/bn"
  type: "BatchNorm"
  bottom: "conv2"
  top: "conv2"
  param {
    lr_mult: 0
    decay_mult: 0
  }
  param {
    lr_mult: 0
    decay_mult: 0
  }
  param {
    lr_mult: 0
    decay_mult: 0
  }
}
layer {
  name: "conv2/scale"
  type: "Scale"
  bottom: "conv2"
  top: "conv2"
  param {
    lr_mult: 1
    decay_mult: 0
  }
  param {
    lr_mult: 1
    decay_mult: 0
  }
  scale_param {
    filler {
      value: 1
    }
    bias_term: true
    bias_filler {
      value: 0
    }
  }
}
layer {
  name: "relu2"
  type: "ReLU"
  bottom: "conv2"
  top: "conv2"
}
layer {
  name: "conv3"
  type: "Convolution"
  bottom: "conv2"
  top: "conv3"
  param {
    lr_mult: 1
    decay_mult: 1
  }
  param {
    lr_mult: 2
    decay_mult: 0
  }
  convolution_param {
    num_output: 48
    pad: 1
    kernel_size: 3
    stride: 2
    weight_filler {
      type: "xavier"
      std: 0.1
    }
    bias_filler {
      type: "constant"
      value: 0.2
    }
  }
}
layer {
  name: "conv3/bn"
  type: "BatchNorm"
  bottom: "conv3"
  top: "conv3"
  param {
    lr_mult: 0
    decay_mult: 0
  }
  param {
    lr_mult: 0
    decay_mult: 0
  }
  param {
    lr_mult: 0
    decay_mult: 0
  }
}
layer {
  name: "conv3/scale"
  type: "Scale"
  bottom: "conv3"
  top: "conv3"
  param {
    lr_mult: 1
    decay_mult: 0
  }
  param {
    lr_mult: 1
    decay_mult: 0
  }
  scale_param {
    filler {
      value: 1
    }
    bias_term: true
    bias_filler {
      value: 0
    }
  }
}
layer {
  name: "relu3"
  type: "ReLU"
  bottom: "conv3"
  top: "conv3"
}
layer {
  name: "ip1"
  type: "InnerProduct"
  bottom: "conv3"
  top: "ip1"
  param {
    lr_mult: 1
    decay_mult: 1
  }
  param {
    lr_mult: 2
    decay_mult: 0
  }
  inner_product_param {
    num_output: 128
    weight_filler {
      type: "xavier"
    }
    bias_filler {
      type: "constant"
      value: 0
    }
  }
}
layer {
  name: "ip2"
  type: "InnerProduct"
  bottom: "ip1"
  top: "ip2"
  param {
    lr_mult: 1
    decay_mult: 1
  }
  param {
    lr_mult: 2
    decay_mult: 1
  }
  inner_product_param {
    num_output: 2
    weight_filler {
      type: "xavier"
    }
    bias_filler {
      type: "constant"
      value: 0
    }
  }
}
layer {
  name: "loss"
  type: "SoftmaxWithLoss"
  bottom: "ip2"
  bottom: "label"
  top: "loss"
}
layer {
  name: "acc"
  type: "Accuracy"
  bottom: "ip2"
  bottom: "label"
  top: "acc"
}
I0401 16:03:14.763396 23942 layer_factory.hpp:77] Creating layer data
I0401 16:03:14.763425 23942 net.cpp:84] Creating Layer data
I0401 16:03:14.763433 23942 net.cpp:380] data -> data
I0401 16:03:14.763458 23942 net.cpp:380] data -> label
I0401 16:03:14.763777 23942 image_data_layer.cpp:43] Opening file train_shuffle.txt
I0401 16:03:14.763783 23942 io.cpp:296] Opening file train_shuffle.txt
I0401 16:03:14.764933 23942 io.cpp:321] Read 900 images with 1 labels
I0401 16:03:14.764942 23942 image_data_layer.cpp:61] Shuffling data
I0401 16:03:14.765094 23942 image_data_layer.cpp:71] A total of 900 images.
I0401 16:03:14.765777 23942 image_data_layer.cpp:98] output data size: 96,3,48,48
I0401 16:03:14.770439 23942 net.cpp:122] Setting up data
I0401 16:03:14.770464 23942 net.cpp:129] Top shape: 96 3 48 48 (663552)
I0401 16:03:14.770469 23942 net.cpp:129] Top shape: 96 1 1 1 (96)
I0401 16:03:14.770471 23942 net.cpp:137] Memory required for data: 2654592
I0401 16:03:14.770476 23942 layer_factory.hpp:77] Creating layer label_data_1_split
I0401 16:03:14.770483 23942 net.cpp:84] Creating Layer label_data_1_split
I0401 16:03:14.770488 23942 net.cpp:406] label_data_1_split <- label
I0401 16:03:14.770501 23942 net.cpp:380] label_data_1_split -> label_data_1_split_0
I0401 16:03:14.770510 23942 net.cpp:380] label_data_1_split -> label_data_1_split_1
I0401 16:03:14.770550 23942 net.cpp:122] Setting up label_data_1_split
I0401 16:03:14.770567 23942 net.cpp:129] Top shape: 96 1 1 1 (96)
I0401 16:03:14.770581 23942 net.cpp:129] Top shape: 96 1 1 1 (96)
I0401 16:03:14.770582 23942 net.cpp:137] Memory required for data: 2655360
I0401 16:03:14.770586 23942 layer_factory.hpp:77] Creating layer conv1
I0401 16:03:14.770601 23942 net.cpp:84] Creating Layer conv1
I0401 16:03:14.770606 23942 net.cpp:406] conv1 <- data
I0401 16:03:14.770612 23942 net.cpp:380] conv1 -> conv1
I0401 16:03:14.771162 23942 net.cpp:122] Setting up conv1
I0401 16:03:14.771183 23942 net.cpp:129] Top shape: 96 12 24 24 (663552)
I0401 16:03:14.771186 23942 net.cpp:137] Memory required for data: 5309568
I0401 16:03:14.771199 23942 layer_factory.hpp:77] Creating layer conv1/bn
I0401 16:03:14.771209 23942 net.cpp:84] Creating Layer conv1/bn
I0401 16:03:14.771215 23942 net.cpp:406] conv1/bn <- conv1
I0401 16:03:14.771224 23942 net.cpp:367] conv1/bn -> conv1 (in-place)
I0401 16:03:14.771394 23942 net.cpp:122] Setting up conv1/bn
I0401 16:03:14.771399 23942 net.cpp:129] Top shape: 96 12 24 24 (663552)
I0401 16:03:14.771404 23942 net.cpp:137] Memory required for data: 7963776
I0401 16:03:14.771416 23942 layer_factory.hpp:77] Creating layer conv1/scale
I0401 16:03:14.771426 23942 net.cpp:84] Creating Layer conv1/scale
I0401 16:03:14.771430 23942 net.cpp:406] conv1/scale <- conv1
I0401 16:03:14.771437 23942 net.cpp:367] conv1/scale -> conv1 (in-place)
I0401 16:03:14.771663 23942 layer_factory.hpp:77] Creating layer conv1/scale
I0401 16:03:14.771755 23942 net.cpp:122] Setting up conv1/scale
I0401 16:03:14.771762 23942 net.cpp:129] Top shape: 96 12 24 24 (663552)
I0401 16:03:14.771767 23942 net.cpp:137] Memory required for data: 10617984
I0401 16:03:14.771785 23942 layer_factory.hpp:77] Creating layer relu1
I0401 16:03:14.771790 23942 net.cpp:84] Creating Layer relu1
I0401 16:03:14.771795 23942 net.cpp:406] relu1 <- conv1
I0401 16:03:14.771803 23942 net.cpp:367] relu1 -> conv1 (in-place)
I0401 16:03:14.771811 23942 net.cpp:122] Setting up relu1
I0401 16:03:14.771816 23942 net.cpp:129] Top shape: 96 12 24 24 (663552)
I0401 16:03:14.771821 23942 net.cpp:137] Memory required for data: 13272192
I0401 16:03:14.771824 23942 layer_factory.hpp:77] Creating layer conv2
I0401 16:03:14.771838 23942 net.cpp:84] Creating Layer conv2
I0401 16:03:14.771842 23942 net.cpp:406] conv2 <- conv1
I0401 16:03:14.771848 23942 net.cpp:380] conv2 -> conv2
I0401 16:03:14.772375 23942 net.cpp:122] Setting up conv2
I0401 16:03:14.772387 23942 net.cpp:129] Top shape: 96 24 12 12 (331776)
I0401 16:03:14.772393 23942 net.cpp:137] Memory required for data: 14599296
I0401 16:03:14.772403 23942 layer_factory.hpp:77] Creating layer conv2/bn
I0401 16:03:14.772411 23942 net.cpp:84] Creating Layer conv2/bn
I0401 16:03:14.772416 23942 net.cpp:406] conv2/bn <- conv2
I0401 16:03:14.772423 23942 net.cpp:367] conv2/bn -> conv2 (in-place)
I0401 16:03:14.772557 23942 net.cpp:122] Setting up conv2/bn
I0401 16:03:14.772563 23942 net.cpp:129] Top shape: 96 24 12 12 (331776)
I0401 16:03:14.772568 23942 net.cpp:137] Memory required for data: 15926400
I0401 16:03:14.772577 23942 layer_factory.hpp:77] Creating layer conv2/scale
I0401 16:03:14.772588 23942 net.cpp:84] Creating Layer conv2/scale
I0401 16:03:14.772591 23942 net.cpp:406] conv2/scale <- conv2
I0401 16:03:14.772598 23942 net.cpp:367] conv2/scale -> conv2 (in-place)
I0401 16:03:14.772630 23942 layer_factory.hpp:77] Creating layer conv2/scale
I0401 16:03:14.772711 23942 net.cpp:122] Setting up conv2/scale
I0401 16:03:14.772717 23942 net.cpp:129] Top shape: 96 24 12 12 (331776)
I0401 16:03:14.772722 23942 net.cpp:137] Memory required for data: 17253504
I0401 16:03:14.772728 23942 layer_factory.hpp:77] Creating layer relu2
I0401 16:03:14.772735 23942 net.cpp:84] Creating Layer relu2
I0401 16:03:14.772740 23942 net.cpp:406] relu2 <- conv2
I0401 16:03:14.772745 23942 net.cpp:367] relu2 -> conv2 (in-place)
I0401 16:03:14.772753 23942 net.cpp:122] Setting up relu2
I0401 16:03:14.772758 23942 net.cpp:129] Top shape: 96 24 12 12 (331776)
I0401 16:03:14.772763 23942 net.cpp:137] Memory required for data: 18580608
I0401 16:03:14.772768 23942 layer_factory.hpp:77] Creating layer conv3
I0401 16:03:14.772778 23942 net.cpp:84] Creating Layer conv3
I0401 16:03:14.772781 23942 net.cpp:406] conv3 <- conv2
I0401 16:03:14.772788 23942 net.cpp:380] conv3 -> conv3
I0401 16:03:14.773353 23942 net.cpp:122] Setting up conv3
I0401 16:03:14.773365 23942 net.cpp:129] Top shape: 96 48 6 6 (165888)
I0401 16:03:14.773370 23942 net.cpp:137] Memory required for data: 19244160
I0401 16:03:14.773378 23942 layer_factory.hpp:77] Creating layer conv3/bn
I0401 16:03:14.773386 23942 net.cpp:84] Creating Layer conv3/bn
I0401 16:03:14.773391 23942 net.cpp:406] conv3/bn <- conv3
I0401 16:03:14.773397 23942 net.cpp:367] conv3/bn -> conv3 (in-place)
I0401 16:03:14.773537 23942 net.cpp:122] Setting up conv3/bn
I0401 16:03:14.773545 23942 net.cpp:129] Top shape: 96 48 6 6 (165888)
I0401 16:03:14.773550 23942 net.cpp:137] Memory required for data: 19907712
I0401 16:03:14.773561 23942 layer_factory.hpp:77] Creating layer conv3/scale
I0401 16:03:14.773568 23942 net.cpp:84] Creating Layer conv3/scale
I0401 16:03:14.773574 23942 net.cpp:406] conv3/scale <- conv3
I0401 16:03:14.773579 23942 net.cpp:367] conv3/scale -> conv3 (in-place)
I0401 16:03:14.773617 23942 layer_factory.hpp:77] Creating layer conv3/scale
I0401 16:03:14.773699 23942 net.cpp:122] Setting up conv3/scale
I0401 16:03:14.773706 23942 net.cpp:129] Top shape: 96 48 6 6 (165888)
I0401 16:03:14.773711 23942 net.cpp:137] Memory required for data: 20571264
I0401 16:03:14.773718 23942 layer_factory.hpp:77] Creating layer relu3
I0401 16:03:14.773725 23942 net.cpp:84] Creating Layer relu3
I0401 16:03:14.773737 23942 net.cpp:406] relu3 <- conv3
I0401 16:03:14.773746 23942 net.cpp:367] relu3 -> conv3 (in-place)
I0401 16:03:14.773751 23942 net.cpp:122] Setting up relu3
I0401 16:03:14.773757 23942 net.cpp:129] Top shape: 96 48 6 6 (165888)
I0401 16:03:14.773762 23942 net.cpp:137] Memory required for data: 21234816
I0401 16:03:14.773766 23942 layer_factory.hpp:77] Creating layer ip1
I0401 16:03:14.773774 23942 net.cpp:84] Creating Layer ip1
I0401 16:03:14.773778 23942 net.cpp:406] ip1 <- conv3
I0401 16:03:14.773783 23942 net.cpp:380] ip1 -> ip1
I0401 16:03:14.775239 23942 net.cpp:122] Setting up ip1
I0401 16:03:14.775254 23942 net.cpp:129] Top shape: 96 128 (12288)
I0401 16:03:14.775257 23942 net.cpp:137] Memory required for data: 21283968
I0401 16:03:14.775265 23942 layer_factory.hpp:77] Creating layer ip2
I0401 16:03:14.775276 23942 net.cpp:84] Creating Layer ip2
I0401 16:03:14.775281 23942 net.cpp:406] ip2 <- ip1
I0401 16:03:14.775288 23942 net.cpp:380] ip2 -> ip2
I0401 16:03:14.775363 23942 net.cpp:122] Setting up ip2
I0401 16:03:14.775369 23942 net.cpp:129] Top shape: 96 2 (192)
I0401 16:03:14.775372 23942 net.cpp:137] Memory required for data: 21284736
I0401 16:03:14.775377 23942 layer_factory.hpp:77] Creating layer ip2_ip2_0_split
I0401 16:03:14.775387 23942 net.cpp:84] Creating Layer ip2_ip2_0_split
I0401 16:03:14.775390 23942 net.cpp:406] ip2_ip2_0_split <- ip2
I0401 16:03:14.775396 23942 net.cpp:380] ip2_ip2_0_split -> ip2_ip2_0_split_0
I0401 16:03:14.775403 23942 net.cpp:380] ip2_ip2_0_split -> ip2_ip2_0_split_1
I0401 16:03:14.775431 23942 net.cpp:122] Setting up ip2_ip2_0_split
I0401 16:03:14.775436 23942 net.cpp:129] Top shape: 96 2 (192)
I0401 16:03:14.775439 23942 net.cpp:129] Top shape: 96 2 (192)
I0401 16:03:14.775441 23942 net.cpp:137] Memory required for data: 21286272
I0401 16:03:14.775444 23942 layer_factory.hpp:77] Creating layer loss
I0401 16:03:14.775449 23942 net.cpp:84] Creating Layer loss
I0401 16:03:14.775454 23942 net.cpp:406] loss <- ip2_ip2_0_split_0
I0401 16:03:14.775456 23942 net.cpp:406] loss <- label_data_1_split_0
I0401 16:03:14.775461 23942 net.cpp:380] loss -> loss
…
I0401 16:03:14.775969 23942 net.cpp:294] The NetState phase (1) differed from the phase (0) specified by a rule in layer data
I0401 16:03:14.776073 23942 net.cpp:51] Initializing net from parameters: 
name: "simpleconv3"
state {
  phase: TEST
}
layer {
  name: "data"
  type: "ImageData"
  top: "data"
  top: "label"
  include {
    phase: TEST
  }
  transform_param {
    mirror: false
    crop_size: 48
    mean_value: 104.008
    mean_value: 116.669
    mean_value: 122.675
  }
  image_data_param {
    source: "val_shuffle.txt"
    batch_size: 16
    shuffle: false
  }
}
layer {
  name: "conv1"
  type: "Convolution"
  bottom: "data"
  top: "conv1"
  param {
    lr_mult: 1
    decay_mult: 1
  }
  param {
    lr_mult: 2
    decay_mult: 0
  }
  convolution_param {
    num_output: 12
    pad: 1
    kernel_size: 3
    stride: 2
    weight_filler {
      type: "xavier"
      std: 0.01
    }
    bias_filler {
      type: "constant"
      value: 0.2
    }
  }
}
layer {
  name: "conv1/bn"
  type: "BatchNorm"
  bottom: "conv1"
  top: "conv1"
  param {
    lr_mult: 0
    decay_mult: 0
  }
  param {
    lr_mult: 0
    decay_mult: 0
  }
  param {
    lr_mult: 0
    decay_mult: 0
  }
}
layer {
  name: "conv1/scale"
  type: "Scale"
  bottom: "conv1"
  top: "conv1"
  param {
    lr_mult: 1
    decay_mult: 0
  }
  param {
    lr_mult: 1
    decay_mult: 0
  }
  scale_param {
    filler {
      value: 1
    }
    bias_term: true
    bias_filler {
      value: 0
    }
  }
}
layer {
  name: "relu1"
  type: "ReLU"
  bottom: "conv1"
  top: "conv1"
}
layer {
  name: "conv2"
  type: "Convolution"
  bottom: "conv1"
  top: "conv2"
  param {
    lr_mult: 1
    decay_mult: 1
  }
  param {
    lr_mult: 2
    decay_mult: 0
  }
  convolution_param {
    num_output: 24
    pad: 1
    kernel_size: 3
    stride: 2
    weight_filler {
      type: "xavier"
      std: 0.1
    }
    bias_filler {
      type: "constant"
      value: 0.2
    }
  }
}
layer {
  name: "conv2/bn"
  type: "BatchNorm"
  bottom: "conv2"
  top: "conv2"
  param {
    lr_mult: 0
    decay_mult: 0
  }
  param {
    lr_mult: 0
    decay_mult: 0
  }
  param {
    lr_mult: 0
    decay_mult: 0
  }
}
layer {
  name: "conv2/scale"
  type: "Scale"
  bottom: "conv2"
  top: "conv2"
  param {
    lr_mult: 1
    decay_mult: 0
  }
  param {
    lr_mult: 1
    decay_mult: 0
  }
  scale_param {
    filler {
      value: 1
    }
    bias_term: true
    bias_filler {
      value: 0
    }
  }
}
layer {
  name: "relu2"
  type: "ReLU"
  bottom: "conv2"
  top: "conv2"
}
layer {
  name: "conv3"
  type: "Convolution"
  bottom: "conv2"
  top: "conv3"
  param {
    lr_mult: 1
    decay_mult: 1
  }
  param {
    lr_mult: 2
    decay_mult: 0
  }
  convolution_param {
    num_output: 48
    pad: 1
    kernel_size: 3
    stride: 2
    weight_filler {
      type: "xavier"
      std: 0.1
    }
    bias_filler {
      type: "constant"
      value: 0.2
    }
  }
}
layer {
  name: "conv3/bn"
  type: "BatchNorm"
  bottom: "conv3"
  top: "conv3"
  param {
    lr_mult: 0
    decay_mult: 0
  }
  param {
    lr_mult: 0
    decay_mult: 0
  }
  param {
    lr_mult: 0
    decay_mult: 0
  }
}
layer {
  name: "conv3/scale"
  type: "Scale"
  bottom: "conv3"
  top: "conv3"
  param {
    lr_mult: 1
    decay_mult: 0
  }
  param {
    lr_mult: 1
    decay_mult: 0
  }
  scale_param {
    filler {
      value: 1
    }
    bias_term: true
    bias_filler {
      value: 0
    }
  }
}
layer {
  name: "relu3"
  type: "ReLU"
  bottom: "conv3"
  top: "conv3"
}
layer {
  name: "ip1"
  type: "InnerProduct"
  bottom: "conv3"
  top: "ip1"
  param {
    lr_mult: 1
    decay_mult: 1
  }
  param {
    lr_mult: 2
    decay_mult: 0
  }
  inner_product_param {
    num_output: 128
    weight_filler {
      type: "xavier"
    }
    bias_filler {
      type: "constant"
      value: 0
    }
  }
}
layer {
  name: "ip2"
  type: "InnerProduct"
  bottom: "ip1"
  top: "ip2"
  param {
    lr_mult: 1
    decay_mult: 1
  }
  param {
    lr_mult: 2
    decay_mult: 1
  }
  inner_product_param {
    num_output: 2
    weight_filler {
      type: "xavier"
    }
    bias_filler {
      type: "constant"
      value: 0
    }
  }
}
layer {
  name: "loss"
  type: "SoftmaxWithLoss"
  bottom: "ip2"
  bottom: "label"
  top: "loss"
}
layer {
  name: "acc"
  type: "Accuracy"
  bottom: "ip2"
  bottom: "label"
  top: "acc"
}
I0401 16:03:14.776165 23942 layer_factory.hpp:77] Creating layer data
I0401 16:03:14.776182 23942 net.cpp:84] Creating Layer data
I0401 16:03:14.776188 23942 net.cpp:380] data -> data
I0401 16:03:14.776197 23942 net.cpp:380] data -> label
I0401 16:03:14.776207 23942 image_data_layer.cpp:43] Opening file val_shuffle.txt
I0401 16:03:14.776211 23942 io.cpp:296] Opening file val_shuffle.txt
I0401 16:03:14.776337 23942 io.cpp:321] Read 100 images with 1 labels
I0401 16:03:14.776345 23942 image_data_layer.cpp:71] A total of 100 images.
I0401 16:03:14.776574 23942 image_data_layer.cpp:98] output data size: 16,3,48,48
I0401 16:03:14.778436 23942 net.cpp:122] Setting up data
I0401 16:03:14.778450 23942 net.cpp:129] Top shape: 16 3 48 48 (110592)
I0401 16:03:14.778455 23942 net.cpp:129] Top shape: 16 1 1 1 (16)
I0401 16:03:14.778456 23942 net.cpp:137] Memory required for data: 442432
I0401 16:03:14.778460 23942 layer_factory.hpp:77] Creating layer label_data_1_split
I0401 16:03:14.778468 23942 net.cpp:84] Creating Layer label_data_1_split
I0401 16:03:14.778472 23942 net.cpp:406] label_data_1_split <- label
I0401 16:03:14.778477 23942 net.cpp:380] label_data_1_split -> label_data_1_split_0
I0401 16:03:14.778486 23942 net.cpp:380] label_data_1_split -> label_data_1_split_1
I0401 16:03:14.778522 23942 net.cpp:122] Setting up label_data_1_split
I0401 16:03:14.778527 23942 net.cpp:129] Top shape: 16 1 1 1 (16)
I0401 16:03:14.778530 23942 net.cpp:129] Top shape: 16 1 1 1 (16)
I0401 16:03:14.778532 23942 net.cpp:137] Memory required for data: 442560
I0401 16:03:14.778535 23942 layer_factory.hpp:77] Creating layer conv1
I0401 16:03:14.778547 23942 net.cpp:84] Creating Layer conv1
I0401 16:03:14.778553 23942 net.cpp:406] conv1 <- data
I0401 16:03:14.778560 23942 net.cpp:380] conv1 -> conv1
I0401 16:03:14.778784 23942 net.cpp:122] Setting up conv1
I0401 16:03:14.778792 23942 net.cpp:129] Top shape: 16 12 24 24 (110592)
I0401 16:03:14.778795 23942 net.cpp:137] Memory required for data: 884928
I0401 16:03:14.778806 23942 layer_factory.hpp:77] Creating layer conv1/bn
I0401 16:03:14.778815 23942 net.cpp:84] Creating Layer conv1/bn
I0401 16:03:14.778820 23942 net.cpp:406] conv1/bn <- conv1
I0401 16:03:14.778826 23942 net.cpp:367] conv1/bn -> conv1 (in-place)
I0401 16:03:14.778977 23942 net.cpp:122] Setting up conv1/bn
I0401 16:03:14.778985 23942 net.cpp:129] Top shape: 16 12 24 24 (110592)
I0401 16:03:14.778988 23942 net.cpp:137] Memory required for data: 1327296
I0401 16:03:14.779000 23942 layer_factory.hpp:77] Creating layer conv1/scale
I0401 16:03:14.779009 23942 net.cpp:84] Creating Layer conv1/scale
I0401 16:03:14.779021 23942 net.cpp:406] conv1/scale <- conv1
I0401 16:03:14.779096 23942 net.cpp:367] conv1/scale -> conv1 (in-place)
I0401 16:03:14.779134 23942 layer_factory.hpp:77] Creating layer conv1/scale
I0401 16:03:14.779229 23942 net.cpp:122] Setting up conv1/scale
I0401 16:03:14.779245 23942 net.cpp:129] Top shape: 16 12 24 24 (110592)
I0401 16:03:14.779251 23942 net.cpp:137] Memory required for data: 1769664
I0401 16:03:14.779259 23942 layer_factory.hpp:77] Creating layer relu1
I0401 16:03:14.779268 23942 net.cpp:84] Creating Layer relu1
I0401 16:03:14.779273 23942 net.cpp:406] relu1 <- conv1
I0401 16:03:14.779278 23942 net.cpp:367] relu1 -> conv1 (in-place)
I0401 16:03:14.779285 23942 net.cpp:122] Setting up relu1
I0401 16:03:14.779291 23942 net.cpp:129] Top shape: 16 12 24 24 (110592)
I0401 16:03:14.779296 23942 net.cpp:137] Memory required for data: 2212032
I0401 16:03:14.779299 23942 layer_factory.hpp:77] Creating layer conv2
I0401 16:03:14.779309 23942 net.cpp:84] Creating Layer conv2
I0401 16:03:14.779315 23942 net.cpp:406] conv2 <- conv1
I0401 16:03:14.779320 23942 net.cpp:380] conv2 -> conv2
I0401 16:03:14.779510 23942 net.cpp:122] Setting up conv2
I0401 16:03:14.779517 23942 net.cpp:129] Top shape: 16 24 12 12 (55296)
I0401 16:03:14.779520 23942 net.cpp:137] Memory required for data: 2433216
I0401 16:03:14.779526 23942 layer_factory.hpp:77] Creating layer conv2/bn
I0401 16:03:14.779532 23942 net.cpp:84] Creating Layer conv2/bn
I0401 16:03:14.779536 23942 net.cpp:406] conv2/bn <- conv2
I0401 16:03:14.779541 23942 net.cpp:367] conv2/bn -> conv2 (in-place)
I0401 16:03:14.779701 23942 net.cpp:122] Setting up conv2/bn
I0401 16:03:14.779707 23942 net.cpp:129] Top shape: 16 24 12 12 (55296)
I0401 16:03:14.779711 23942 net.cpp:137] Memory required for data: 2654400
I0401 16:03:14.779716 23942 layer_factory.hpp:77] Creating layer conv2/scale
I0401 16:03:14.779721 23942 net.cpp:84] Creating Layer conv2/scale
I0401 16:03:14.779724 23942 net.cpp:406] conv2/scale <- conv2
I0401 16:03:14.779728 23942 net.cpp:367] conv2/scale -> conv2 (in-place)
I0401 16:03:14.779762 23942 layer_factory.hpp:77] Creating layer conv2/scale
I0401 16:03:14.779850 23942 net.cpp:122] Setting up conv2/scale
I0401 16:03:14.779855 23942 net.cpp:129] Top shape: 16 24 12 12 (55296)
I0401 16:03:14.779857 23942 net.cpp:137] Memory required for data: 2875584
I0401 16:03:14.779861 23942 layer_factory.hpp:77] Creating layer relu2
I0401 16:03:14.779865 23942 net.cpp:84] Creating Layer relu2
I0401 16:03:14.779868 23942 net.cpp:406] relu2 <- conv2
I0401 16:03:14.779876 23942 net.cpp:367] relu2 -> conv2 (in-place)
I0401 16:03:14.779884 23942 net.cpp:122] Setting up relu2
I0401 16:03:14.779891 23942 net.cpp:129] Top shape: 16 24 12 12 (55296)
I0401 16:03:14.779894 23942 net.cpp:137] Memory required for data: 3096768
I0401 16:03:14.779898 23942 layer_factory.hpp:77] Creating layer conv3
I0401 16:03:14.779907 23942 net.cpp:84] Creating Layer conv3
I0401 16:03:14.779912 23942 net.cpp:406] conv3 <- conv2
I0401 16:03:14.779917 23942 net.cpp:380] conv3 -> conv3
I0401 16:03:14.780136 23942 net.cpp:122] Setting up conv3
I0401 16:03:14.780144 23942 net.cpp:129] Top shape: 16 48 6 6 (27648)
I0401 16:03:14.780148 23942 net.cpp:137] Memory required for data: 3207360
I0401 16:03:14.780153 23942 layer_factory.hpp:77] Creating layer conv3/bn
I0401 16:03:14.780160 23942 net.cpp:84] Creating Layer conv3/bn
I0401 16:03:14.780165 23942 net.cpp:406] conv3/bn <- conv3
I0401 16:03:14.780174 23942 net.cpp:367] conv3/bn -> conv3 (in-place)
I0401 16:03:14.780339 23942 net.cpp:122] Setting up conv3/bn
I0401 16:03:14.780345 23942 net.cpp:129] Top shape: 16 48 6 6 (27648)
I0401 16:03:14.780347 23942 net.cpp:137] Memory required for data: 3317952
I0401 16:03:14.780357 23942 layer_factory.hpp:77] Creating layer conv3/scale
I0401 16:03:14.780367 23942 net.cpp:84] Creating Layer conv3/scale
I0401 16:03:14.780372 23942 net.cpp:406] conv3/scale <- conv3
I0401 16:03:14.780377 23942 net.cpp:367] conv3/scale -> conv3 (in-place)
I0401 16:03:14.780411 23942 layer_factory.hpp:77] Creating layer conv3/scale
I0401 16:03:14.780496 23942 net.cpp:122] Setting up conv3/scale
I0401 16:03:14.780503 23942 net.cpp:129] Top shape: 16 48 6 6 (27648)
I0401 16:03:14.780506 23942 net.cpp:137] Memory required for data: 3428544
I0401 16:03:14.780514 23942 layer_factory.hpp:77] Creating layer relu3
I0401 16:03:14.780527 23942 net.cpp:84] Creating Layer relu3
I0401 16:03:14.780531 23942 net.cpp:406] relu3 <- conv3
I0401 16:03:14.780537 23942 net.cpp:367] relu3 -> conv3 (in-place)
I0401 16:03:14.780544 23942 net.cpp:122] Setting up relu3
I0401 16:03:14.780550 23942 net.cpp:129] Top shape: 16 48 6 6 (27648)
I0401 16:03:14.780553 23942 net.cpp:137] Memory required for data: 3539136
I0401 16:03:14.780557 23942 layer_factory.hpp:77] Creating layer ip1
I0401 16:03:14.780565 23942 net.cpp:84] Creating Layer ip1
I0401 16:03:14.780570 23942 net.cpp:406] ip1 <- conv3
I0401 16:03:14.780577 23942 net.cpp:380] ip1 -> ip1
I0401 16:03:14.782028 23942 net.cpp:122] Setting up ip1
I0401 16:03:14.782040 23942 net.cpp:129] Top shape: 16 128 (2048)
I0401 16:03:14.782042 23942 net.cpp:137] Memory required for data: 3547328
I0401 16:03:14.782049 23942 layer_factory.hpp:77] Creating layer ip2
I0401 16:03:14.782058 23942 net.cpp:84] Creating Layer ip2
I0401 16:03:14.782064 23942 net.cpp:406] ip2 <- ip1
I0401 16:03:14.782073 23942 net.cpp:380] ip2 -> ip2
I0401 16:03:14.782155 23942 net.cpp:122] Setting up ip2
I0401 16:03:14.782162 23942 net.cpp:129] Top shape: 16 2 (32)
I0401 16:03:14.782164 23942 net.cpp:137] Memory required for data: 3547456
I0401 16:03:14.782171 23942 layer_factory.hpp:77] Creating layer ip2_ip2_0_split
I0401 16:03:14.782181 23942 net.cpp:84] Creating Layer ip2_ip2_0_split
I0401 16:03:14.782184 23942 net.cpp:406] ip2_ip2_0_split <- ip2
I0401 16:03:14.782191 23942 net.cpp:380] ip2_ip2_0_split -> ip2_ip2_0_split_0
I0401 16:03:14.782200 23942 net.cpp:380] ip2_ip2_0_split -> ip2_ip2_0_split_1
I0401 16:03:14.782232 23942 net.cpp:122] Setting up ip2_ip2_0_split
I0401 16:03:14.782238 23942 net.cpp:129] Top shape: 16 2 (32)
I0401 16:03:14.782243 23942 net.cpp:129] Top shape: 16 2 (32)
I0401 16:03:14.782245 23942 net.cpp:137] Memory required for data: 3547712
I0401 16:03:14.782249 23942 layer_factory.hpp:77] Creating layer loss
I0401 16:03:14.782256 23942 net.cpp:84] Creating Layer loss
I0401 16:03:14.782260 23942 net.cpp:406] loss <- ip2_ip2_0_split_0
I0401 16:03:14.782266 23942 net.cpp:406] loss <- label_data_1_split_0
I0401 16:03:14.782274 23942 net.cpp:380] loss -> loss
…
